task02/map_weights.pt (torch, 470292 bytes, 34 tensors)

layer0.0.weight f4 [32, 3, 5, 5]
000000 6d 5e 61 bd d0 92 51 be 7a b6 08 be 34 50 80 3a
       -0.055021692 -0.20466161 -0.1335086 0.0009789527
000010 b5 d3 fe bc 53 21 09 be cd 55 5d be 00 c8 c4 bd
       -0.03110681 -0.13391618 -0.21614762 -0.096084595
000020 18 ac 73 bd 0e 35 31 bc 53 8c 99 be 5e f7 91 be
       -0.059490293 -0.010815872 -0.2998987 -0.2850904
000030 46 33 30 be f5 0a d5 bd 8f 20 b2 bb 1d 12 c1 be
       -0.1720706 -0.104024805 -0.00543601 -0.37709132
000040 09 0f bd be 44 b8 92 be 02 fd bc bc 83 e0 ee 3c
       -0.36925533 -0.2865621 -0.023069862 0.02915979
000050 60 23 a1 be dc 0f e3 be 1c 5e af be 6a 30 65 be
       -0.314723 -0.44348037 -0.34251487 -0.2238175
000060 b4 e5 42 bd 3a e0 78 39 ba b6 a7 3d ff f1 ef 3d
       -0.047582343 0.00023734654 0.08189149 0.11716079
000070 15 3d 7a bd 23 58 e4 3d e3 89 1a 3d 0c c4 40 3e
       -0.06109341 0.11149623 0.037729155 0.18824786
000080 ae 25 4e 3e 88 f2 09 3d 86 a1 0f bd f0 6e f3 bd
       0.20131561 0.03367856 -0.03506615 -0.11886394
000090 6a b2 1a 3e c4 78 f9 3d f1 78 7b 3e ce dd 7c 3d
       0.15107122 0.12181237 0.24557854 0.061734967
0000a0 40 cc 5a bd 15 d1 ef bd 5b 0b f3 3d 99 36 f5 3d
       -0.053417444 -0.11709801 0.118674 0.11973304
0000b0 ff 15 0f 3d e9 e8 17 be 02 69 81 be a0 a6 af bd
       0.034933086 -0.14834942 -0.25275427 -0.08576703
0000c0 e0 60 76 bd d7 bf 4a 3c 80 a2 8f 3c 3c c6 8c 3d
       -0.06015098 0.01237484 0.01753354 0.06873748
0000d0 a9 4b 5d 3e f7 81 1c 3e cb 45 b7 3e be 53 35 3e
       0.21610893 0.15283953 0.35795435 0.17707726
0000e0 62 01 02 3e e7 dc ca 3d 93 ed 8b 3e 2f 7e 88 3e
       0.1269584 0.09905415 0.27329692 0.2665877
0000f0 2f f4 8a bd 8a 34 14 3e 41 41 5a 3e 73 a6 ae 3e
       -0.067848556 0.14473167 0.21313955 0.34111366
000100 72 a7 3f 3e bd df ab bd 51 96 c1 bc 3f ee b7 3d
       0.18716219 -0.08392284 -0.023631247 0.08980989
000110 b2 d2 d7 3d a4 80 22 3e c9 d5 11 3c 12 dc db bd
       0.10538234 0.15869385 0.008901068 -0.107353345
000120 7a 9d 1d 3d a7 b6 d8 3d af 95 76 3e 66 f5 2e bd
       0.03848026 0.10581713 0.24080537 -0.0427145
000130 d1 b2 d4 bc f9 bd ed 3c 0b cb 87 bd 76 7d 2c 3e
       -0.025964173 0.02902125 -0.06630524 0.16844735
000140 71 13 89 be 4c 9e 88 be 66 8e 0c be 76 ef 72 bd
       -0.26772645 -0.2668327 -0.13726196 -0.0593104
000150 85 60 f6 3d b2 ed b9 be 18 4c e5 be 7e f2 42 be
       0.120301284 -0.3631416 -0.44784617 -0.19037816
000160 eb 8e 24 be d5 06 85 3d 3f 33 8c be 93 6a f5 be
       -0.16070144 0.06495444 -0.27382848 -0.47932872
000170 23 bf ac be 91 bc 3d be 00 e3 01 be 45 49 a2 be
       -0.33739576 -0.18528964 -0.1268425 -0.31696525
000180 00 20 85 be 19 ba 8d be 4c 66 75 be 30 87 8d bd
       -0.26000977 -0.27681044 -0.23964804 -0.069105506
000190 70 6b e4 3d 24 fa 94 3d b7 e7 48 3e d0 07 2c 3e
       0.111533046 0.07274273 0.19619642 0.16799855
0001a0 f4 db 27 3b f6 c8 75 bd b2 2d 73 3e 4d 4c 36 3e
       0.002561328 -0.060006104 0.237479 0.17802544
0001b0 a8 b2 80 3e 0f f3 0b 3e 70 1a 67 3d a8 e7 2f 3e
       0.25136304 0.13666938 0.056421697 0.17178214
0001c0 38 45 86 3e 6d ce b6 3d 39 12 05 3e ba ab 90 3c
       0.26224685 0.08926091 0.12995233 0.01766001
0001d0 99 f1 95 3d 98 da de 3d 42 2e f1 3b c6 1c 9c bc
       0.07321472 0.10881537 0.0073602507 -0.019056689
0001e0 1d 94 89 be be 77 cf bd 40 f9 df 3c d4 7d d4 bd
       -0.26870814 -0.10130261 0.027340531 -0.10375562
0001f0 dc 1e 63 3d 0f c4 9f 3d 5d 27 a6 3d e9 36 5b 3e
       0.05544935 0.07801067 0.08112977 0.21407665
000200 97 21 ac 3e ab 58 d4 3e f0 34 52 3c a9 c0 27 3e
       0.33619377 0.41473898 0.012830004 0.16382088
000210 08 8f 93 3e e5 e9 ac 3e 9f 15 c4 3e b3 a3 a6 3d
       0.28820062 0.33772197 0.38297746 0.08136692
000220 1e ec d3 3d 66 5e 19 3e 76 ba 09 3e e7 cc 4f 3e
       0.1034777 0.14977416 0.13450035 0.20293008
000230 e6 b6 ac bd a7 84 30 bd 68 03 15 bd f7 4a 34 3e
       -0.084333226 -0.043095257 -0.0363802 0.17606722
000240 24 cb 88 3e fe 0d af bd 19 ab ee 3b bd ac 18 3d
       0.26717484 -0.08547591 0.00728358 0.03727411
000250 da 80 28 3e 79 f1 95 3e a1 b0 51 be 48 37 b5 bd
       0.16455403 0.29285792 -0.20477535 -0.08848435
000260 00 c2 65 be d3 a6 6d be 30 5b 94 be ff 21 82 be
       -0.22437286 -0.2320817 -0.2897582 -0.25416562
000270 61 8a 6e be 0e 67 58 be 00 78 80 bd 35 e5 25 be
       -0.23294975 -0.21133062 -0.06272888 -0.16200717
000280 13 d9 75 be 19 be 28 be a6 d1 eb bd f6 d0 12 ba
       -0.24008588 -0.16478767 -0.11514597 -0.00056005956
000290 fc a2 e0 bd e5 22 c0 bd 64 73 6e be d8 8a 44 be
       -0.10968587 -0.093816556 -0.23286206 -0.1919359
0002a0 e8 b4 36 be 6b a6 8c bd 62 46 10 be d7 ea 4d bd
       -0.17842448 -0.06867679 -0.14089349 -0.05027279
0002b0 d6 73 b5 bd 9e 1c 8a bd 4c b1 b6 3c ec 66 21 3e
       -0.088599846 -0.067437395 0.022301339 0.15761918
0002c0 b4 01 37 3e fe ee f6 3d 8a 6d 57 bb 74 8f f9 3d
       0.17871743 0.12057303 -0.0032871687 0.12185565
0002d0 19 d5 2a 3c c6 6c 01 3e 07 79 c2 3d b4 99 40 3e
       0.010426783 0.1263915 0.094957404 0.18808633
0002e0 6d 2a 82 3d c3 00 ce 3d 22 95 49 bd c1 c7 84 3d
       0.06355748 0.10058739 -0.04921449 0.064834125
0002f0 4f cc 6c 3e 57 54 11 3e ba e4 5e bd 0a cb eb bd
       0.23124813 0.1419233 -0.05441735 -0.11513336
000300 06 da 03 bd 19 c7 f2 3d eb ce 7a 3e e4 37 8d be
       -0.032190345 0.11854381 0.24492995 -0.27581704
000310 eb 03 63 bd d2 0e ca 3c 32 f0 f5 3d 0b 11 02 bd
       -0.05542366 0.02466527 0.12008704 -0.031754535
000320 35 8d ca 3d 01 0f 9f bb e9 21 1f 3e d9 d6 98 3b
       0.09890214 -0.0048540835 0.1554028 0.0046642837
000330 ca 3d 0a 3e c4 ed 81 3d 2f c3 a9 3d 18 0a d6 3d
       0.13500133 0.06344178 0.082891814 0.10451144
000340 3f de 19 3e 99 12 39 3e 63 6f 97 3d 44 fc 94 3d
       0.15026186 0.180735 0.07394292 0.07274678
000350 0c 6b b4 b9 29 3c 7f 3e d3 25 8f 3e 6f b5 16 3e
       -0.00034412032 0.24925293 0.27958545 0.14717649
000360 f3 0d c7 3d a2 98 a1 bc 70 73 b6 3d 62 bd 96 3e
       0.097194575 -0.019726101 0.08908737 0.29441363
000370 1e 69 a0 bc ec f1 3b 3e a2 91 47 3c eb 67 47 3d
       -0.019581374 0.18354005 0.012180718 0.04868309
000380 1a d1 52 3e 3a fa 1e be 6f 72 8c bd ac fb f7 3c
       0.20587578 -0.15525141 -0.06857764 0.030271374
000390 36 9a 75 3c b3 7d e0 3a 39 c4 a5 bc cb f0 ca bb
       0.01499038 0.0017127305 -0.020235168 -0.0061932555
0003a0 61 66 3c 3e e6 d0 e3 bb 1f 76 c1 bd 86 1c a5 3c
       0.1839843 -0.006952393 -0.09446358 0.020155203
0003b0 b1 c5 14 3d 48 5e 76 3e dc 0f 15 3e a9 a9 e7 bd
       0.036321346 0.24059403 0.14556831 -0.11311657
0003c0 7e b1 05 be 7f b9 ae 3b 08 ab 1f 3e a4 a7 7d 3d
       -0.13055989 0.0053321715 0.15592587 0.061927453
0003d0 b7 98 e2 bd 7d 86 ab bd ba 4b 26 be df 8a 86 bd
       -0.11064284 -0.08375261 -0.16239825 -0.06569456
0003e0 4a 98 6d bd b2 5b 8b 3b 70 f3 aa 3c 54 59 34 bc
       -0.058006562 0.0042528743 0.020868033 -0.011007626
0003f0 50 29 6c 3d b7 9b 8a 3d 52 33 ec bc 56 8e eb bc
       0.057656586 0.067679815 -0.028833065 -0.028754395

layer0.0.bias f4 [32]
000000 a5 ff b4 bc 4a 35 7b 3d 46 d9 8b 3d 52 e9 8a 3d
       -0.022094557 0.061330117 0.06828551 0.067827836
000010 92 fd 84 3d 97 42 a4 bd 6c b0 cb bd 4c c8 3d 3c
       0.06493677 -0.080205135 -0.09945759 0.011583399
000020 64 9c f6 3c 84 51 a3 bd 44 89 ad 3d ff d8 33 bc
       0.03010387 -0.07974532 0.08473447 -0.010977029
000030 d3 db 78 bd 39 a4 91 3d 47 f5 b9 3d 16 7e 82 3c
       -0.060756516 0.07111401 0.09079986 0.015929263
000040 50 6c 07 bd dc 57 38 3c 54 83 9c bd b5 dc 82 3d
       -0.03306228 0.011251416 -0.07642236 0.06389753
000050 1a 4a 85 3d 14 02 9f bc 70 53 a8 bd bb 9d 9d 3d
       0.065082744 -0.01941017 -0.082190394 0.076961
000060 74 b1 ad bd b8 fc 5e bd 52 4d 7d 3d 19 0a 53 bd
       -0.08481112 -0.05444023 0.061841317 -0.0515233
000070 03 c0 a1 3c 5f 85 ae 3d f9 b8 56 bc 94 1b c0 bc
       0.019744879 0.08521532 -0.013105624 -0.02345065

layer0.1.weight f4 [32]
000000 1b 8f 5a 3f 12 30 33 3f 72 80 26 3f 9d 71 2c 3f
       0.8537461 0.69995224 0.6503974 0.6736086
000010 5f b5 6f 3f 9c cf 99 3f a1 45 85 3f 2f c1 f7 3f
       0.93636125 1.2016482 1.0411874 1.935583
000020 35 01 3b 3f 1d 6c 82 3f 0c 66 69 3f fa 1a 7a 3f
       0.73048717 1.0189244 0.91171336 0.9769741
000030 b7 19 62 3f 60 02 68 3f 2a 27 06 3f 14 07 08 3f
       0.8832049 0.90628624 0.5240351 0.531358
000040 d6 b1 49 3f d9 47 80 3f 72 d4 a1 3f 3a 00 8c 3f
       0.7878698 1.0021926 1.2642958 1.0937569
000050 b7 d7 9b 3f 3b 81 28 3f ac 4e 72 3f 2d 70 2f 3f
       1.2175206 0.6582219 0.94651294 0.6853054
000060 fd 97 05 3f 54 95 51 3f 52 17 3a 3f 45 90 44 3f
       0.5218504 0.8186848 0.72691834 0.7678264
000070 68 33 9d 3f 22 f9 46 3f 07 c4 21 3f bc f6 60 3f
       1.2281313 0.77723897 0.6318974 0.87876487

layer0.1.bias f4 [32]
000000 b2 66 46 3e 24 3d 07 3f 52 82 86 3e 46 99 1d be
       0.19375113 0.5282767 0.26271302 -0.153905
000010 e9 1c a0 be d4 a4 8b be a3 d1 6e 3e 0b da 07 bf
       -0.31272057 -0.2727419 0.23322158 -0.5306708
000020 c2 70 49 3e b4 ce bb bd 11 3d 9e 3d d3 a9 3d bf
       0.1967192 -0.09170285 0.07726491 -0.74087256
000030 ae 02 89 3d 97 96 64 be 8d c9 06 3e 81 d8 8f 3e
       0.06689964 -0.2232307 0.13162823 0.28094867
000040 db 11 8a 3e 79 96 23 be 4d d4 12 bd c5 da e2 3d
       0.26966748 -0.1597537 -0.035846997 0.11076883
000050 de e6 81 bd 2e 6f f6 3e 98 39 d8 3c 97 03 80 be
       -0.063428625 0.48131698 0.02639465 -0.2500274
000060 62 79 6f 3e 56 77 ee 3d a9 1a 15 3e 17 5c 44 be
       0.23386148 0.11643855 0.14560951 -0.19175754
000070 ba ff 2a 3e 4a 40 8d be 10 0e 61 be 50 a7 b4 3e
       0.16699114 -0.2758811 -0.2197802 0.352839

layer0.1.running_mean f4 [32]
000000 93 a6 52 be 75 84 8f 3e 49 7f 08 3e c0 0c d8 3e
       -0.20571356 0.28030744 0.13329805 0.42197227
000010 c3 38 0a bf bd 92 20 bf d7 d6 1f bf 15 4c 19 bc
       -0.5399286 -0.62723905 -0.62437195 -0.009356518
000020 6d 4b bb 3e 02 ef 25 bf 24 ca 99 3d f7 3a c7 be
       0.36580983 -0.6481782 0.075092584 -0.38912174
000030 8b 61 5c 3e db 27 05 bf 14 62 27 3f 06 bb ef bd
       0.21521585 -0.5201394 0.6538403 -0.11705594
000040 10 fe c9 bd 07 d7 b1 be 5e 06 82 be 79 f4 b0 be
       -0.09862912 -0.34734365 -0.25395483 -0.34561518
000050 d2 8a 65 be cb 4a 17 3e f9 3f 12 bf 0a f0 14 3f
       -0.22416237 0.14774625 -0.57128865 0.5817877
000060 55 6a 77 be db ae 2a be c6 26 d0 3c ce 00 fd 3d
       -0.24161656 -0.16668265 0.025409114 0.12353669
000070 dc a3 f7 be 5f 14 4a 3e 85 da c0 3e bb 7d 24 bf
       -0.48367202 0.19734333 0.37666717 -0.6425435

layer0.1.running_var f4 [32]
000000 7e f8 8e 3e db ee b9 3e 6e f1 41 3e bc 4f c2 3d
       0.2792396 0.36315045 0.18939754 0.094878644
000010 f7 2f 60 3e fb f7 18 3f 49 b6 4d 3f 83 dd 5e 3d
       0.21893297 0.5975339 0.8035627 0.05441047
000020 ca fb bd 3d 49 0f ac 3e d2 3f cc 3c 08 fc b3 3d
       0.092765406 0.33605412 0.024932776 0.087883055
000030 1b 60 80 3d 1c 1a b5 3e 97 37 6d 3e eb 0a ff 3d
       0.06268331 0.35371482 0.23165737 0.12453254
000040 d6 04 c9 3e a5 05 92 3e ad 64 af 3d 67 57 59 3e
       0.39261502 0.2851993 0.08564124 0.21224748
000050 e2 a1 3a 3f 97 93 be 3e f9 46 27 3e 0f 7d f1 3d
       0.72903264 0.37221977 0.16335668 0.11791431
000060 43 f4 ee 3d c1 47 41 3e d4 fc a1 3e 31 79 28 3e
       0.11667683 0.18875028 0.31638205 0.16452481
000070 e8 43 8f 3e 29 c8 cf 3d 8a 87 a8 3d 4a 2a 20 3f
       0.27981496 0.101455994 0.08228977 0.6256453

layer1.0.weight f4 [32, 32, 3, 3]
000000 bd 66 da 3b 2a 5b 01 bd f4 0f 90 bc df b9 94 bd
       0.0066650794 -0.03158108 -0.017585732 -0.072620146
000010 b9 d4 b9 bd 9e be e8 bc 4f 85 bc bd 91 41 8b bd
       -0.09073777 -0.028411206 -0.09205114 -0.06799615
000020 d1 f7 87 bd 77 21 2a bc 3e ab d3 bd 32 c4 46 bd
       -0.06639064 -0.010383955 -0.10335396 -0.04852695
000030 97 c6 1a bd 12 e1 c8 bc f1 40 f9 bc 12 33 a8 bd
       -0.037787046 -0.024521384 -0.030426474 -0.08212866
000040 61 96 a5 bc 57 fe 87 bd 3a 8e 7b 3c 32 34 c8 3b
       -0.020213308 -0.06640308 0.015353734 0.006109738
000050 97 4f 64 bc 1a a9 1f 3c b2 78 f0 bc cf d5 81 3d
       -0.013934991 0.009744907 -0.029354427 0.06339609
000060 e9 fb 43 bb 30 ac e2 bc f2 d5 b1 bc 21 62 7a bc
       -0.0029904789 -0.027669996 -0.021708462 -0.015282185
000070 53 e1 7d bb 03 be e1 bc 74 bc 1c 3b a5 31 03 3c
       -0.003873904 -0.027556425 0.0023916038 0.008007442
000080 84 4b 26 3d 41 17 18 bd 17 9c 55 bd f2 a4 63 bd
       0.04059936 -0.03713155 -0.052150812 -0.055577226
000090 9e e6 a2 bc f4 98 f0 3c 47 00 2f bd d6 44 9d bd
       -0.019885357 0.029369809 -0.042724874 -0.07679145
0000a0 89 d9 a8 3c 2d 12 fc ba 5e 54 77 bd cb a0 3f bd
       0.020611541 -0.0019231491 -0.060383193 -0.046784203
0000b0 f1 d1 d3 bc 57 52 cd bd 29 fe 58 bd f6 06 80 bc
       -0.025856944 -0.10025471 -0.05297676 -0.01562832
0000c0 c7 c1 04 be 70 d4 88 bd 48 84 d8 bd 86 4d 37 bd
       -0.12964545 -0.06681144 -0.10572106 -0.044751666
0000d0 7c 1f 20 be 6d 6b c2 bd a1 54 91 3c 63 d6 2a bd
       -0.1563701 -0.09493146 0.01774055 -0.04170836
0000e0 64 47 db bc 6d ef 93 3d fc fb 26 3c cd 0d 85 3d
       -0.02676744 0.07223401 0.010191914 0.06496773
0000f0 89 6f be bc ba 48 17 3b d4 63 62 3d c8 55 8f 3e
       -0.023246543 0.002308412 0.055270985 0.27995133
000100 29 09 2a 3e af 16 01 3e 25 bb 0d 3d ce 0b 2c 3d
       0.16605057 0.1260631 0.034602303 0.042003445
000110 88 16 26 3d ad d6 11 3b 9c 09 8e 3c 90 05 08 bd
       0.04054883 0.00222532 0.017338566 -0.03320843
000120 58 cc ca bd 95 72 2f bd df 06 af bc 06 61 b3 bd
       -0.09902257 -0.042833883 -0.021365581 -0.0875874
000130 be 96 f6 bd 6b 69 72 bd 32 82 d9 bd 94 a4 c2 bd
       -0.120404705 -0.059182566 -0.10620536 -0.09504047
000140 f3 0d 0e be 0b e0 94 bd 85 06 1a be 81 76 09 be
       -0.13872509 -0.07269295 -0.1504155 -0.13424112
000150 58 21 a0 bd b8 01 0c be 50 b4 33 bd bb 69 6c bd
       -0.0781886 -0.1367253 -0.04387313 -0.05771802
000160 03 91 cd bd bf 49 87 bd f6 02 21 bd 24 b1 23 bd
       -0.100374244 -0.06605863 -0.039309464 -0.039963856
000170 0d 92 5b bd a7 a8 fd bc 29 2f 95 bd 82 f0 a9 bd
       -0.05360608 -0.030964209 -0.07284386 -0.08297826
000180 89 75 b6 bd 05 41 58 bd ac 9d c5 bc 02 20 67 bd
       -0.08909137 -0.052796382 -0.024123035 -0.05642701
000190 81 7d 12 bd 47 bd d9 bc c4 6a 2c bd 8c ea e4 bd
       -0.03576422 -0.026579512 -0.042094007 -0.11177549
0001a0 e6 83 97 bd 05 31 d4 bd 44 75 c5 bd 08 82 c6 bd
       -0.073982045 -0.10360912 -0.09641507 -0.0969277
0001b0 0a 7d da 3c a7 12 1a bd 4c 64 61 bd 82 ed 19 bd
       0.026670951 -0.037615445 -0.05502729 -0.03758002
0001c0 28 d9 1b 3d 39 33 9c bd 33 f3 47 bd 4c ab 5e 3c
       0.038048893 -0.076269574 -0.048815917 0.013590645
0001d0 94 f5 28 bc 15 36 a6 3c 5c 94 17 3e 4a be f9 3d
       -0.010312457 0.02028946 0.14802688 0.12194498
0001e0 7b 3e 44 3d e2 73 ee 3d 5b 03 17 3e 61 f9 ef 3c
       0.04791115 0.11643197 0.14747374 0.029293718
0001f0 5f 5d 1b 3c 9c 1b 6e 3d 5d 74 3b bd de 79 1d bd
       0.009482711 0.0581318 -0.04576527 -0.0384463
000200 18 94 e6 bc 54 b6 8c bd 60 1c 6d bd 31 bd c5 bd
       -0.028146788 -0.06870714 -0.05788839 -0.09655226
000210 8e 14 ac bd 93 e3 b6 bd 1b 1e c4 bd 90 a4 9e bd
       -0.08402358 -0.08930125 -0.09576055 -0.077462316
000220 a5 bd 56 bc 1c 0e ed bc 35 3c 82 bc 3e 03 20 bb
       -0.013106738 -0.028937392 -0.01589785 -0.0024415995
000230 06 41 97 bd 0b e3 18 bd ef e6 6b bc 81 27 99 bd
       -0.07385449 -0.0373259 -0.014398321 -0.07478238
000240 13 76 9e bd 58 c8 de bc 29 09 c9 bd ae b2 73 bc
       -0.077373646 -0.02719514 -0.098162 -0.0148741435
000250 12 c0 65 bd 6e 41 31 bd 78 b1 11 bc c4 87 c4 bd
       -0.056091376 -0.04327529 -0.0088924095 -0.09596208
000260 15 4b 19 3c 8e 00 81 bc cc a6 74 3d eb 44 7f 3c
       0.00935628 -0.015747335 0.059729382 0.015580396
000270 1a be 7e 3d 37 74 05 3d c9 43 1d bd 6d f3 5a bc
       0.062193014 0.032581534 -0.038394723 -0.013363701
000280 84 a3 2b 3d 7c 98 60 bc 8b a6 e6 3c b3 89 6f 3d
       0.041903988 -0.01370823 0.028155586 0.05848093
000290 34 5c db 3c 0e f0 8b 3d 38 82 4c 3d 6e 75 d1 bc
       0.026777364 0.06832896 0.049928874 -0.02556869
0002a0 9c 4f 9b 3c 01 96 89 3b f5 02 38 bc 5a fd 2e bd
       0.01895886 0.00419879 -0.011231174 -0.042722084
0002b0 bd 33 29 bd 37 56 8a bd a9 20 25 3d ba 9d ad 3d
       -0.041309107 -0.067547254 0.04031435 0.084773496
0002c0 fa 92 60 3d 14 e6 ab 3b 8d 16 c1 3d 57 69 18 3e
       0.054827668 0.0052459333 0.09428129 0.14883934
0002d0 71 35 23 3d cf 0a 8c 3d 51 77 a4 bc 28 24 05 3d
       0.039845888 0.06837999 -0.020076426 0.032505184
0002e0 4b 24 be 3d ef d5 e7 3c a5 d7 08 bd ee 84 88 3c
       0.09284266 0.028300254 -0.03340878 0.016664948
0002f0 88 d8 e6 3c 04 d1 65 bd 77 0e 97 3c 14 0e 9c bb
       0.028179422 -0.056107536 0.018439515 -0.0047624204
000300 76 d6 a6 bd 8d b9 c6 bb a7 b7 62 ba ad 44 b9 bd
       -0.08146374 -0.0060646 -0.0008648582 -0.09046302
000310 79 62 06 bd 8f fd 8a bd ef 99 57 bd 66 dd 20 bd
       -0.032808755 -0.06786644 -0.052637037 -0.039273642
000320 0d 96 a3 bd 18 ba 6b bd 75 4a 88 bd 93 b0 95 bd
       -0.07987604 -0.05755052 -0.066548266 -0.073090695
000330 19 f4 ca bd 2d 83 1e bc f1 3e d7 3c 60 fc 12 3d
       -0.09909839 -0.009674829 0.02627513 0.035885215
000340 2d 36 19 3c e5 9c 7a ba e3 93 3c bb 17 b3 80 bc
       0.009351295 -0.0009560122 -0.002877467 -0.015710397
000350 b8 03 24 3d d7 75 20 bd 9e 0a 2d 3d 9d 4b bd 3c
       0.04004261 -0.03917488 0.042246453 0.023107344
000360 4f 4c 44 bd 69 3d d3 bc 6f 78 01 bd 26 32 c7 bd
       -0.047924336 -0.025786119 -0.031608995 -0.09726362
000370 9c bc ac bc fc 58 82 bd 9b 35 af bd 03 63 99 bd
       -0.02108603 -0.06364629 -0.08555146 -0.07489588
000380 82 8f b6 bd 71 a0 1b be e0 b2 e5 bc f7 c4 0c bc
       -0.08914091 -0.15197922 -0.028039396 -0.008591882
000390 cd 5e 6a b8 17 c0 1b b7 32 06 65 3c 4e 9c 04 bd
       -5.5878238e-05 -9.283444e-06 0.013978528 -0.032375626
0003a0 90 f9 74 3c ec 89 a9 39 d6 b5 8e 3b f9 79 95 3d
       0.014952078 0.00032336952 0.0043551726 0.07298655
0003b0 6e 35 8e 3d f5 42 80 bd 53 c8 2c 3d 38 68 9a 3d
       0.06943785 -0.06262771 0.04218323 0.075394094
0003c0 c7 44 a1 bd 3e a9 af bd 21 2b f6 bc c8 b7 14 3d
       -0.07874446 -0.08577202 -0.030049862 0.03630808
0003d0 70 79 04 3e ef 1f 93 3d 3c 77 a8 3c 01 9f aa 3d
       0.1293695 0.07183825 0.020564668 0.08331109
0003e0 94 58 a5 3d 34 c8 1c 3d 54 56 9f 3d 20 12 ef bb
       0.080735356 0.038276866 0.07780138 -0.007295862
0003f0 d5 ca 86 bd 24 c5 b0 bc a9 fe 18 3e c8 ae 4a be
       -0.06581656 -0.021578379 0.14940895 -0.19793236

layer1.0.bias f4 [32]
000000 8b d3 47 bd a8 66 7f bb 1b 44 c4 ba 95 50 37 3d
       -0.048785727 -0.00389711 -0.001497391 0.044754583
000010 71 13 3e bd 9b 88 72 3c 89 99 00 3c e0 c4 4f 3d
       -0.04640526 0.014803077 0.007849106 0.050724864
000020 c9 5e 23 3d d6 96 47 bd 7e ab 0e bd d7 06 43 3b
       0.039885316 -0.048727833 -0.034831516 0.0029758716
000030 ab ae 4a 3d a0 aa ac 3c f3 f1 23 3d 7a a7 13 bc
       0.049482983 0.021077454 0.040025663 -0.0090120975
000040 c0 c7 fe bc ed 67 0b 3d 64 40 0e 3d 4c 5f c3 3c
       -0.031101108 0.03403466 0.034729376 0.023849152
000050 11 be b9 bc 2b e7 2e 3d f2 0b 3c 3d 28 32 c5 bc
       -0.022673639 0.042700928 0.04590983 -0.024071768
000060 a5 58 41 bc 49 21 2a 3d 27 f6 c4 3c 00 f7 32 3d
       -0.01180092 0.04153565 0.024043156 0.04369259
000070 16 a0 30 3c f6 1b 3a bd f4 b6 3e 3c a4 d4 66 bb
       0.010780355 -0.045436822 0.011640299 -0.0035221959

layer1.1.weight f4 [32]
000000 4e 5d 7f 3f 70 42 49 3f 56 70 a0 3f b2 77 91 3f
       0.99751747 0.78617 1.2534282 1.1364653
000010 0c c5 6a 3f 49 b1 58 3f 78 9e 36 3f 64 df 72 3f
       0.9170692 0.84645516 0.71335554 0.9487212
000020 5d f6 75 3f 1b 9d 51 3f c2 2d 53 3f af 9d 2b 3f
       0.96079046 0.8188035 0.82491696 0.6703748
000030 b9 10 37 3f 3e 23 5b 3f 25 d6 66 3f 99 aa a4 3f
       0.7150989 0.8560065 0.9017051 1.2864562
000040 36 eb 55 3f 6b 01 7d 3f 5b b3 83 3f 03 dc 7a 3f
       0.8356203 0.9883029 1.028911 0.9799196
000050 6b c4 7f 3f 65 10 54 3f 15 c6 8d 3f e2 2d 52 3f
       0.99909085 0.82837516 1.1076075 0.8210126
000060 79 2f 56 3f 58 d2 8d 3f 24 50 8b 3f 3c 44 2d 3f
       0.8366619 1.1079817 1.0883832 0.6768224
000070 6d a4 6a 3f bc a0 88 3f d1 b2 55 3f 8d df 57 3f
       0.91657144 1.0674052 0.8347598 0.84325486

layer1.1.bias f4 [32]
000000 77 1c 82 3d f5 18 4c be 1c 8f 57 3e 0e 22 eb 3d
       0.063530855 -0.19931395 0.21050686 0.11481105
000010 75 4a c9 bd 41 47 24 3d 90 b8 01 be 98 21 77 3d
       -0.09828655 0.040107016 -0.12668061 0.060334772
000020 ca 75 14 bd 09 95 01 be 45 fb 19 be a8 c5 16 3e
       -0.036245145 -0.12654509 -0.15037258 0.14723837
000030 5e 49 1f 3f 21 38 e6 3d 05 d7 79 be 30 72 a0 be
       0.62221324 0.112411745 -0.2439843 -0.31337118
000040 19 e8 d2 bb 4d c3 35 bd c0 12 b1 bb e8 d5 94 bc
       -0.0064363596 -0.044375706 -0.0054038465 -0.018168405
000050 73 8f fa 3d 58 28 6d 3e 1f ee cc bd 32 96 d4 bd
       0.12234392 0.23159921 -0.100063555 -0.1038021
000060 b6 7c 5b be b9 f9 89 3d 75 ae 4d 3c 21 13 e1 bc
       -0.21434292 0.06737084 0.012553801 -0.027474942
000070 9c 08 8c 3e 8a c5 4e 3e 2a f0 36 bd 5b 1f 55 3e
       0.27350318 0.20192543 -0.044662632 0.20812742

layer1.1.running_mean f4 [32]
000000 1c a9 07 c0 0c 49 5a bf 0a 81 f5 bf bf d4 81 c0
       -2.1196966 -0.8526771 -1.9180005 -4.05722
000010 ae 33 2b c0 13 53 4f 3f e5 4e cd 3e ef 8d 63 40
       -2.6750293 0.80986136 0.40099254 3.555538
000020 26 ad 24 40 55 fa d7 3e a9 65 86 40 81 0e 19 40
       2.5730681 0.42183176 4.1999097 2.3915102
000030 85 25 6b c0 0d d1 12 be 53 ab 28 c0 9f cf f2 3e
       -3.674165 -0.14337559 -2.6354568 0.47424027
000040 50 2a a3 3e 5d 7c a0 bf f5 e3 3b c0 f3 86 7d c0
       0.3186822 -1.2537953 -2.9357884 -3.9613616
000050 53 16 4e c0 32 b3 6d c0 8b ea 5b c0 03 92 b1 bd
       -3.2201126 -3.7140622 -3.4361904 -0.08670428
000060 e3 a2 46 40 11 c6 2c c0 61 ab 31 c0 bc cc 9b bc
       3.1036918 -2.699589 -2.7760851 -0.019018523
000070 a4 0c 04 c0 c0 db 20 c0 af 82 1b 3f d3 1f 3d c0
       -2.0632715 -2.5134125 0.6074628 -2.9550674

layer1.1.running_var f4 [32]
000000 10 93 0d 40 52 dd 49 40 5b dc 18 41 f3 91 ba 40
       2.212101 3.1541333 9.553798 5.830316
000010 8f 30 92 40 a0 db b8 40 e3 d5 12 40 76 83 9f 40
       4.5684276 5.7768097 2.2943046 4.9847975
000020 97 c0 5d 40 ac b8 08 41 97 bb a1 40 68 09 30 40
       3.4648798 8.545086 5.054149 2.750574
000030 21 f9 f6 40 c2 69 b3 40 45 8e 92 40 df 56 93 40
       7.7179112 5.60666 4.579867 4.6043544
000040 c0 2d b9 40 59 7f 30 41 13 64 20 41 e8 a1 97 40
       5.7868347 11.031091 10.024432 4.738514
000050 b0 9a 08 41 86 e9 e5 40 82 da 85 40 89 d6 fa 40
       8.5377655 7.1847563 4.1829233 7.8386884
000060 86 43 f7 40 90 e8 b7 40 e8 f3 b7 40 1d db 38 40
       7.7269926 5.747139 5.7485237 2.8883736
000070 c0 5a b4 40 14 ce d6 40 57 46 7b 40 2c 69 95 40
       5.636078 6.712656 3.9261682 4.6690884

layer2.0.weight f4 [32, 32, 3, 3]
000000 3f f2 5f 3d 6f 3b 42 ba 88 24 c0 bb 0a 3f 66 3d
       0.054674383 -0.0007409369 -0.00586373 0.056212462
000010 36 8f 61 bc 3a 1e 49 3b 0f 0c 0d bb 33 3b 84 bb
       -0.013767054 0.0030688182 -0.002152208 -0.0040353774
000020 e6 3f 16 3d 18 42 6a bc 6a ea 06 bd 28 52 4c bd
       0.036682032 -0.014297985 -0.0329384 -0.049883038
000030 10 22 35 3d 84 6b 63 bd 1a 08 66 bd ba 24 6f bd
       0.044221938 -0.055522457 -0.05616007 -0.058384635
000040 7e 3c 32 bd 98 dd 81 bc 53 8b 8c bd c2 b4 48 bd
       -0.04351472 -0.015852734 -0.068625115 -0.04900051
000050 80 24 9c 3d 46 8f f0 bd 6d ce 9b bd f0 dc b0 3b
       0.07624149 -0.11746077 -0.07607732 0.0053974316
000060 71 b9 33 bd 0f a4 21 bd 94 1c be bc 6c c6 ed 3c
       -0.043878023 -0.0394631 -0.023206986 0.029025279
000070 20 4f c7 3c d9 7a b4 bc 61 a6 5a 3c 12 5d 23 3c
       0.024329722 -0.022031235 0.013345332 0.00997092
000080 13 ca 97 3d b7 ed 7f 3d d9 dd d9 3d fc 91 f8 3d
       0.074115895 0.062482562 0.10638017 0.12137219
000090 ce 23 ae 3c 99 7f 36 3d f0 6c bc 3b 02 af 33 3c
       0.021257307 0.04455528 0.005750291 0.010967018
0000a0 e5 f9 87 3d 91 4b 82 3d d1 ce b1 3d b3 f5 c3 3d
       0.066394605 0.063620694 0.08682025 0.09568348
0000b0 46 58 65 3d e3 60 2c bd 07 59 bf bd 14 33 53 bd
       0.055992387 -0.042084586 -0.093431525 -0.051562384
0000c0 af 1e e9 3a 6b f5 a4 bd 30 25 d9 bd 9e ed 3d bd
       0.0017785634 -0.08054622 -0.10602796 -0.046369188
0000d0 01 3b a6 bd d1 2d a0 bb 4a 95 97 3d 50 b9 ff 3c
       -0.08116723 -0.0048882742 0.074015215 0.031216294
0000e0 19 d2 b1 3d e2 c2 bd 3c b5 7c b8 3d c1 96 c5 3d
       0.08682651 0.023164216 0.09008161 0.09647895
0000f0 57 cd 1f 3d 95 5a 86 3d 48 7b 0e 3d 16 fc 57 3d
       0.039014187 0.06560246 0.03478554 0.052730642
000100 b4 b3 60 bb 24 e7 f1 bc af ee e4 3c 70 c2 fd 3c
       -0.00342868 -0.029529162 0.027945844 0.030976504
000110 16 d1 bc 3c cd ae 78 3d 51 4f c9 3c 41 e9 ce 3c
       0.023048919 0.060713578 0.024573954 0.025257709
000120 cf f2 80 bd 60 41 cc bd 99 0b af bd d4 56 c9 bb
       -0.06296312 -0.09973407 -0.08547134 -0.006144384
000130 d6 79 bf bd f1 83 37 bd ef cb 6e bd 36 5d fa bd
       -0.0934941 -0.044803564 -0.058299955 -0.1222481
000140 3d f3 05 be bd 27 9e 3c b4 95 85 3b a2 44 00 3d
       -0.1308107 0.019306058 0.004076684 0.031315453
000150 6f a2 4e 3d 6f 55 af 3c ae d9 8e 3d f3 2c 9f 3d
       0.050447877 0.021403043 0.06975113 0.07772245
000160 14 6d 0b 3d bf 52 a0 3d 7a 4c 1f 3d 4c 31 c9 bb
       0.034039572 0.078282826 0.038891293 -0.00613991
000170 40 53 2a bd 2d dc 77 bc 88 28 7a 3c 6d e9 c0 3c
       -0.0415833 -0.015128178 0.015268452 0.023548806
000180 40 1d 98 bb ce d7 37 bd eb d2 7e bd ac 0d 59 3d
       -0.0046421587 -0.04488354 -0.062212866 0.052991554
000190 2a 2d 2a 3d 9b 84 81 3d 98 aa 84 3d 82 4d 8d 3d
       0.041546978 0.063241206 0.06477851 0.06899549
0001a0 6f d0 6d 3d 31 d2 59 3d 91 63 94 3c 3f d3 7a bb
       0.058060106 0.05317897 0.018113883 -0.0038272885
0001b0 8d 28 08 3b 54 cf 32 3c a9 42 c8 3d 87 45 d3 3c
       0.0020776123 0.010913689 0.097783394 0.02578999
0001c0 ca 73 e4 3d 9e fe 0d 3e fe cb 10 3d 8d 32 e1 3d
       0.111548975 0.1386666 0.035350792 0.1099597
0001d0 6e 07 cd 3d 94 d1 04 3c 18 a9 30 3c f4 3f ca 3c
       0.10011183 0.008106608 0.010782503 0.024688698
0001e0 8b 1b 8e bd ab 9a 83 bd a3 41 c8 3c 2d 81 0d bd
       -0.06938847 -0.06425985 0.02444536 -0.03454702
0001f0 28 fe 7c bd 09 2b a5 bd 86 0c 9f bd d5 fd 5f bc
       -0.06176582 -0.08064849 -0.077660605 -0.013671358
000200 44 68 1b 3c 1d e8 02 bd 65 9f 09 bd 8e b2 14 3d
       0.009485308 -0.03195964 -0.033599276 0.036303096
000210 0b 2f b6 bc e1 0f 3e 3b 60 f4 18 3d 5a a5 39 bc
       -0.022239229 0.0029001164 0.03734243 -0.011330927
000220 2d 5d db bd 98 a6 2b bd a9 eb 51 bd e5 64 c4 bd
       -0.10711131 -0.041906923 -0.051250134 -0.095895566
000230 f8 ec b6 bd ee 3c 97 bd 86 05 e9 bd d4 ad 21 bd
       -0.08931917 -0.07384668 -0.11378007 -0.039472416
000240 a0 bc db bc 49 00 d2 3c fb 59 47 3d fe 6b 9f bc
       -0.026823342 0.025634902 0.048669796 -0.019460674
000250 ee 89 b4 bc a3 8e c1 3c 38 2e d6 3b 59 f1 35 3d
       -0.022038426 0.023627585 0.0065362714 0.04441962
000260 9d 9c 30 3c 58 f3 fb 3c 60 75 b3 3d 5b 6c d4 3c
       0.010779527 0.030755684 0.08762622 0.025930574
000270 5c c3 61 3d 76 a8 62 3d f4 07 1b 3b 43 9f cc 3d
       0.05511795 0.055336438 0.0023655863 0.09991314
000280 63 5d c3 3d 97 fa 6c 3d db 9b 51 bd 4b fb 94 bd
       0.095392965 0.05785617 -0.051174026 -0.07274493
000290 b5 b0 a8 bb cc 9b 99 bd 09 19 70 bd f1 35 9b 3c
       -0.0051480182 -0.07500419 -0.058617625 0.01894662
0002a0 48 0d 04 bd 41 ad b6 bd f9 a4 15 3d 94 63 62 bd
       -0.03223923 -0.08919764 0.036534283 -0.055270746
0002b0 4a 62 d9 bd f6 a4 cb bd 0a 93 12 bc 85 16 36 bd
       -0.1061445 -0.09943573 -0.00894619 -0.04445507
0002c0 ad 69 a8 bd f6 ad 80 bd 8c d6 47 bd 9a 1a 60 bd
       -0.08223281 -0.062831804 -0.048788592 -0.05471287
0002d0 35 21 06 3c ba be 5f 3d a9 bf 00 3d bc 4e 1c 3c
       0.008186628 0.05462525 0.03143278 0.009540256
0002e0 7b 2b d2 3c a1 bb b5 3c d3 a7 fd 3a a7 69 b2 3c
       0.025655499 0.022184195 0.0019352384 0.021778895
0002f0 52 e0 4c 3d b9 9e c8 bd b7 36 2f bd d2 1f 7e bd
       0.050018616 -0.09795899 -0.04277679 -0.062042065
000300 86 6e 1b bd a5 09 58 bd 3c 77 b7 bd 65 14 ae bd
       -0.0379472 -0.052743573 -0.08958289 -0.08499984
000310 26 5e 44 bd 14 c6 e4 bd 82 5c 71 3d 83 05 d3 3c
       -0.04794135 -0.11170593 0.058926113 0.025759464
000320 f0 34 52 3d 39 58 97 3d 89 4c 9b 3d 2f eb ab 3d
       0.051320016 0.07389874 0.07582957 0.08394467
000330 7e 28 e0 3a 11 a9 d1 3c 1a d1 8c 3c a6 7c 00 bc
       0.0017101911 0.025593312 0.017189551 -0.0078422185
000340 a2 0e 23 3c 16 95 20 bd 88 93 46 bc 24 bc fb 3c
       0.009952219 -0.03920468 -0.012120135 0.03072936
000350 c7 00 62 3d 4a 7a 8b bd f9 3a 90 bd d8 3f 52 bd
       0.055176523 -0.06810434 -0.07042498 -0.051330417
000360 79 d1 4b ba 8a c5 53 3d 5a 34 b5 3c 2b bb 74 3d
       -0.00077750493 0.05170206 0.02211969 0.05974881
000370 eb 42 60 3c a6 49 98 3d e4 a8 52 3d 84 d2 4e 3d
       0.0136878295 0.07435922 0.051430598 0.050493732
000380 cb eb 88 bb 55 83 0c 3d 85 4b 79 3d 21 aa 6d 3d
       -0.0041784993 0.034304935 0.060863037 0.058023576
000390 f9 38 ff 3c ad 11 87 3d d0 1d 0c 3e f7 3b b4 3d
       0.031155096 0.06595168 0.13683248 0.088005
0003a0 2a ed 13 3e 1d 8e 01 3e ac fc c1 bd c1 78 02 bd
       0.1444594 0.12651868 -0.094720215 -0.03185344
0003b0 54 9f c0 bd 38 00 c9 bd 99 a0 c1 bd 27 90 97 bd
       -0.094053894 -0.09814495 -0.0945446 -0.07400542
0003c0 7b 90 d9 bd 2a 89 73 bd 2f 04 89 bd 08 e6 08 3e
       -0.106232606 -0.05945698 -0.06690251 0.13369
0003d0 88 c0 0b 3e 47 d1 ab 3d 54 7d ba 3d 15 01 01 3e
       0.13647664 0.08389526 0.09105936 0.12598069
0003e0 c5 50 6d 3c cb 9e c0 3d a3 2a 95 3d 4e 06 a4 3d
       0.014484589 0.09405287 0.07283523 0.08009015
0003f0 b5 33 09 bc 01 28 d3 3c 10 19 49 ba d9 80 1b 3d
       -0.008374144 0.025775911 -0.0007671276 0.037964676

layer2.0.bias f4 [32]
000000 94 1d 2a bb cb 62 a6 bc f0 ca a1 bc ca e1 25 bd
       -0.0025957571 -0.02031078 -0.019750088 -0.040498532
000010 64 a8 6e bc 22 c8 8f 3c ea dd 44 3d 83 1d ce bc
       -0.014566515 0.017551485 0.048063196 -0.025160557
000020 d3 ba f9 bc e7 5d 79 3c cd d2 55 3d 42 fd 9d 3c
       -0.030484593 0.015220142 0.05220299 0.019285802
000030 34 05 25 bd da 7f 33 3d f2 c0 d0 3c 37 bd 21 3c
       -0.040288165 0.0438231 0.025482628 0.0098717725
000040 e6 40 df bc a2 33 71 bc e0 6f 03 bd fe ef 76 bc
       -0.027252626 -0.014721783 -0.032089114 -0.015071867
000050 db b0 d8 3c d1 75 97 3c d0 be 92 bc 8a 78 0b 3c
       0.026451519 0.018488796 -0.017913252 0.0085126255
000060 31 46 02 bc 02 e1 e7 3c e2 2a 2b 3d d8 dc 32 3d
       -0.007951305 0.028305534 0.041788943 0.043667644
000070 86 c7 26 bd ab ee ed 3c c5 6a 85 3c 09 02 09 bc
       -0.040717624 0.02904447 0.016286263 -0.008362302

layer2.1.weight f4 [32]
000000 fa 0c 3d 3f 56 e8 a8 3f 77 28 55 3f 7c 31 69 3f
       0.73847926 1.3195903 0.8326487 0.9109113
000010 88 d1 61 3f 45 9e 5f 3f b0 8f 62 3f 3f 20 54 3f
       0.88210344 0.87350875 0.885005 0.82861704
000020 4e df 67 3f 04 aa 62 3f 87 44 67 3f 4c 83 80 3f
       0.9057511 0.88540673 0.9033894 1.0040069
000030 92 a0 5d 3f 45 3d 9f 3f ea 25 33 3f c7 2b 82 3f
       0.86573136 1.2440573 0.6997973 1.016961
000040 73 b7 6d 3f 40 49 73 3f 32 ba 62 3f 4f 5d 80 3f
       0.92858046 0.95033646 0.8856536 1.0028476
000050 f4 db 6e 3f 33 be 67 3f c3 81 78 3f 88 87 7f 3f
       0.9330437 0.90524596 0.97073 0.9981618
000060 d3 57 85 3f c5 b0 56 3f 77 39 2e 3f 97 89 5c 3f
       1.0417427 0.8386348 0.68056434 0.86147445
000070 cf c6 83 3f 17 9d 7c 3f 4b 10 68 3f 0a 9b a6 3f
       1.0295047 0.986772 0.9064986 1.3016064

layer2.1.bias f4 [32]
000000 41 bc f3 3a f2 7d 39 be 20 8e b5 be 49 e9 aa bd
       0.0018595533 -0.1811445 -0.35459995 -0.08345277
000010 49 53 80 3a 07 62 91 3d 25 b1 2a bd a1 5a 4e bd
       0.0009790446 0.07098775 -0.041672844 -0.0503794
000020 57 a8 d3 be 7a f9 88 3d 6a da b3 bc 01 66 be 3d
       -0.4133937 0.06688209 -0.021954734 0.092967995
000030 72 8d c6 bc 8f 8a f2 3c 80 96 48 be 6c d5 39 3d
       -0.024237368 0.029607086 -0.19588661 0.04536955
000040 21 b2 ca 3d f1 c2 a9 be 2d 04 36 be fa 35 84 be
       0.09897257 -0.3315654 -0.1777503 -0.2582243
000050 ed ab c2 bd 7c be c2 bd 2d c8 c5 3d 12 b8 1e 3d
       -0.095054485 -0.09508988 0.09657321 0.038749762
000060 3b c2 8a be 88 6d a5 be d2 58 97 bb a5 ac bb 3c
       -0.2710131 -0.32310128 -0.0046187425 0.022909472
000070 45 d3 2e bd 91 ad f6 3c 22 50 d5 bd da 8e 4e 3d
       -0.04268195 0.03011206 -0.10415675 0.050429203

layer2.1.running_mean f4 [32]
000000 5a 70 b8 3e 97 48 14 c0 8e 4e 57 3f 18 24 56 3e
       0.36023217 -2.3169305 0.8410424 0.20912206
000010 00 e1 c3 bf 0d 13 39 3f 92 d9 ae bf d0 7d a0 bf
       -1.530304 0.72294694 -1.3660147 -1.2538395
000020 d6 34 98 3f 74 21 d4 bf 2b 76 ad 3f 6e ac bf bf
       1.1891124 -1.6572709 1.3551687 -1.4974496
000030 6d 30 4a bf 3d 98 99 3d 1d fe 31 3e 41 f4 e4 bf
       -0.7898014 0.0749974 0.17382093 -1.788704
000040 f5 93 8e bf d9 43 50 3e 68 a7 1a c0 4c 83 62 bf
       -1.1138903 0.20338382 -2.4164677 -0.88481593
000050 34 2e 9c bf 53 f1 c9 bf 2a 31 07 c0 4e a4 94 bf
       -1.22016 -1.5776771 -2.1123757 -1.1612642
000060 62 f1 dd bd 9b 85 41 bf 41 5c 3d 3f 15 4e b5 be
       -0.10837056 -0.7559449 0.73968893 -0.35411134
000070 9f 4f 54 3f 09 fb af bf a3 68 00 40 bd 1c 0e c0
       0.8293399 -1.3748485 2.0063865 -2.220504

layer2.1.running_var f4 [32]
000000 1f d1 15 40 5c 67 a8 40 dc 99 13 40 d2 bf 12 40
       2.3408887 5.262617 2.3062658 2.2929578
000010 ad 20 b2 40 ab 9b bb 40 02 35 53 40 33 ac 63 40
       5.5664887 5.8627524 3.3001103 3.5573852
000020 75 43 8e 40 74 da 89 40 da 93 a4 40 20 e2 8a 40
       4.4457345 4.3079166 5.1430483 4.340103
000030 1a 90 96 40 76 ab 13 41 77 22 36 40 9d 00 f1 40
       4.7050905 9.229361 2.8458536 7.531325
000040 89 8f 82 40 89 b5 1e 40 12 57 14 40 06 53 28 40
       4.0800214 2.47983 2.3178144 2.6300673
000050 d2 fb 8a 40 53 1e 79 40 4a 45 2f 41 50 a9 9e 40
       4.34324 3.8924758 10.954416 4.958168
000060 9a c6 13 40 12 f5 65 40 d3 9d 84 40 9e 4c 82 40
       2.3089967 3.593083 4.1442657 4.0718527
000070 ad a4 f1 40 f7 64 b2 40 f3 eb ca 40 67 0f a3 40
       7.551352 5.574825 6.3413024 5.09563

layer3.0.weight f4 [64, 32, 3, 3]
000000 7e b6 8c 3d ee 2f 63 3d 9a d0 f3 3d a2 c4 98 3d
       0.06870745 0.05546563 0.11905022 0.0745938
000010 9d d9 d7 3d 3d 66 0e 3e f2 40 46 3d 77 5c d1 3d
       0.10539553 0.13906188 0.04840178 0.102227144
000020 21 a9 ad 3d 92 bf 7d bd 7c b9 11 3d d1 65 2b 3e
       0.084795244 -0.061950274 0.035577282 0.16738059
000030 3c a4 e8 bc de 06 d9 3a 16 41 b9 3c 4d 54 8d 3d
       -0.028398626 0.0016557833 0.022614043 0.06900845
000040 8f 6b 94 3d 3b b8 be 3d e7 20 d8 3d 68 07 44 3d
       0.07247078 0.09312483 0.105531506 0.047858626
000050 da 2f 85 3d ea f0 87 3c 48 18 1f 3c 7d d7 a4 3d
       0.065032676 0.016594369 0.009710379 0.08048914
000060 93 f6 de 3c 66 1b 0b bd 6b 89 9c bc 04 20 be bc
       0.027217185 -0.033961676 -0.019108495 -0.023208626
000070 96 d6 16 be 99 b9 de bd f2 a9 77 bd 36 d2 ce bd
       -0.14730296 -0.10875244 -0.060464807 -0.10098688
000080 22 df 96 bc 0e 11 00 3d 60 ba 11 bd cf c8 95 bd
       -0.018416945 0.031266265 -0.03557813 -0.07313692
000090 b6 97 ae 3c b5 4d 8a 3d d5 b3 32 3e d1 6d ab bd
       0.021312576 0.06753103 0.17451413 -0.08370555
0000a0 1a 11 ee 3c 89 ef 3a 3e 32 5c 1b be a5 f5 05 bd
       0.029060889 0.18255438 -0.15171888 -0.032704968
0000b0 8c 42 e1 3d f5 16 a0 3d ac 5d 3c 3c e8 9d 18 3d
       0.10999021 0.07816879 0.0114969425 0.037259966
0000c0 d7 90 ad 3d ba fe e6 3d 40 b1 73 3d 2a 82 1e 3e
       0.08474892 0.11279054 0.05949521 0.15479341
0000d0 f2 d9 20 3e bb ed c8 3d 79 aa a3 3c aa 12 d2 bd
       0.1570814 0.098109685 0.019978749 -0.10257466
0000e0 f8 23 83 bd 64 11 99 3d d1 12 1a bc 3f 2b ca 3d
       -0.06403345 0.0747402 -0.0094039 0.0987153
0000f0 4b 33 84 3d b3 70 05 3d e6 32 2b 3e de 8d ab 3d
       0.06455096 0.03257818 0.16718635 0.083766684
000100 e8 18 d5 3d 61 03 2f 3d 5e 67 02 bc 41 0f 19 bd
       0.10405141 0.04272783 -0.007959215 -0.037368063
000110 ec d6 3f 3d 82 4f 9a bd 39 57 cf bd cd fc 3d bd
       0.046835825 -0.07534696 -0.10124058 -0.046383668
000120 8f 89 7e 3d a7 5d 5b bd c5 19 ad bd fd 74 05 3e
       0.062142905 -0.05355611 -0.08452181 0.13032909
000130 ef 77 28 bd ab 56 98 bc 73 47 a5 3c 69 fb c7 3b
       -0.041130003 -0.018596014 0.020175671 0.0061029685
000140 3c 7c 12 bd 91 67 05 be 91 b3 38 bd be b1 47 bd
       -0.03576301 -0.13027789 -0.045093123 -0.048753493
000150 71 ec 59 bd 59 df 94 bd ed c8 0f bd 6e eb a1 3d
       -0.053204004 -0.07269163 -0.035103727 0.07906233
000160 a9 16 87 3d 1e 7a a9 bc 9e 0c 01 be c7 dc 35 be
       0.06596119 -0.020688113 -0.1260247 -0.17760001
000170 37 5e c8 bd 31 82 4c be bd 12 21 be fe 1a 28 bd
       -0.09783595 -0.19971539 -0.15729804 -0.041041367
000180 53 03 e3 bd a7 44 ee bd ce d1 04 be 7f 38 58 bc
       -0.110846184 -0.11634188 -0.12970659 -0.0131970635
000190 21 b8 f1 bb 1d b4 74 bc 9d 5d 1c bd 6e b4 e0 3b
       -0.007376686 -0.0149355205 -0.038175214 0.0068574464
0001a0 2a b8 a6 bc 3a 2d f8 bd 64 a4 92 bd e8 44 fe bc
       -0.020351488 -0.12118001 -0.07160261 -0.031038716
0001b0 ab bb 18 3c f9 97 41 bd f8 65 72 be fc 19 37 3d
       0.009322087 -0.047264073 -0.2367171 0.044702515
0001c0 5a 04 9f 3d 20 5b 0a be 75 69 4c 3e 5e ed 4c 3d
       0.07764502 -0.13511324 0.19962104 0.05003106
0001d0 d5 36 1c bd 6b 1f b1 3d a8 0b 44 3e c1 a9 89 3e
       -0.03813823 0.086485706 0.19145072 0.26887324
0001e0 fa 02 09 3c c7 e4 09 3e ed cb 7a 3e bd c5 f4 bc
       0.008362526 0.13466178 0.24491854 -0.029879445
0001f0 25 19 f0 3d 93 4a 80 3e 00 4e 06 ba f2 0b 9e 3b
       0.11723546 0.25056896 -0.0005123317 0.0048232013
000200 73 cc a7 bd 9a f4 e6 3d 7b 48 d3 39 42 16 a9 3b
       -0.081932925 0.11277123 0.00040299058 0.005160124
000210 2c 71 97 3c 3b 0f 8a 3d a8 2f bb bb 31 e8 92 bc
       0.018486582 0.06741186 -0.005712468 -0.017932983
000220 0e 3d 56 3c 36 4a a0 3d c0 33 8c bc 60 cd 0c 3d
       0.01307608 0.078266546 -0.01711452 0.03437555
000230 a7 d1 24 3e 22 1c 77 bd be b4 ac 3c 2c 58 eb 3d
       0.16095601 -0.060329564 0.021082278 0.11491427
000240 b4 8a 28 be ed 78 b6 bd 78 c0 3b bd d5 97 01 be
       -0.16459161 -0.089097835 -0.04583785 -0.12655576
000250 76 90 69 bd 28 52 99 bc e0 29 8e bc bb bd 44 bd
       -0.057022534 -0.018715933 -0.017353952 -0.048032504
000260 24 e2 6e bd 9a 58 9a bd 67 bc bf 3c 5a 1b cb 3d
       -0.058321133 -0.07536431 0.023405267 0.09917326
000270 76 6f d5 bd e2 6e 2d bd 83 88 f1 3c 1c 87 24 bd
       -0.1042165 -0.042342074 0.02948404 -0.040167913
000280 f0 3c 38 3d f7 f4 89 3d 03 38 87 3d f7 6f c5 3c
       0.04497999 0.067361765 0.0660248 0.02410124
000290 13 bd 58 bc cf 53 cb 3c a7 f5 32 bb 97 fc b6 3c
       -0.013228673 0.024820236 -0.0027307065 0.022337241
0002a0 a6 c8 14 3d e1 55 4a bc f6 9e e9 bc 1f a2 48 3d
       0.036324166 -0.012349577 -0.028518181 0.048982736
0002b0 91 87 88 3d a4 4f bb 3d 3b d2 5a bd c8 fb 9c 3d
       0.06666482 0.091460496 -0.053423148 0.07665211
0002c0 db dc c5 3c 68 c6 db 3d c8 df 4e 3d 01 cc 92 3b
       0.024153164 0.10731202 0.050506383 0.0044798856
0002d0 9e 49 84 3b 77 71 78 3d 4b f0 5f 3d 4c 2b a1 bb
       0.004037096 0.060655084 0.05467252 -0.0049184915
0002e0 cc 8c 8f 3d 3c 3e 8e 3d f2 c3 9e bd cd 74 af 3c
       0.07009277 0.06945464 -0.07752217 0.021418
0002f0 ad 66 b5 3d 23 9c 0b 3b 2e bf 5b 3d 87 a5 61 bd
       0.088574745 0.0021302782 0.05364912 -0.0550895
000300 37 ab 00 3e 70 ba 2c 3d ac 8f 97 ba 04 93 47 3e
       0.12565313 0.04216999 -0.0011563203 0.19489676
000310 4f a8 b0 3d 5f c9 e5 3c 55 12 e2 bc e8 ae 1c be
       0.08625852 0.028050123 -0.027596632 -0.15301096
000320 60 b0 57 be 85 eb 15 bb 4a e1 33 bd cc 49 04 be
       -0.21063375 -0.0022875976 -0.043916024 -0.12918776
000330 53 5b 6a ba 2b 18 da bd 60 15 9f bd 6d 77 ff bd
       -0.000894 -0.10649141 -0.07767749 -0.124739505
000340 35 ae 48 3b 2e 0d 24 3d 7e d0 02 be 0f 72 17 bd
       0.0030621414 0.04005163 -0.12774846 -0.03697401
000350 87 be 4e 3d 68 89 5e bd a9 93 e3 3c f7 60 19 bd
       0.05047467 -0.05433026 0.02778037 -0.03744599
000360 4b c2 b9 bb f4 7c fd 3c 52 3d ed 3d b5 fa 04 be
       -0.0056689135 0.030943371 0.115839615 -0.12986262
000370 d7 49 e6 bc e6 af 4d 3d 3c 49 78 bd b9 00 9e bd
       -0.028111381 0.050216578 -0.060616717 -0.077149816
000380 ea ea 2e bd f9 31 9a 3c 5e b7 dd 3d 8d 0d 24 3e
       -0.0427045 0.018822657 0.1082599 0.16020794
000390 31 26 04 be c9 95 31 bd 72 06 bf 3c 91 a8 fe bd
       -0.12905194 -0.043355737 0.023318503 -0.12434495
0003a0 fd ef d5 bd 61 5b 7d bc 99 47 47 3d 88 81 4a b9
       -0.10446165 -0.015463681 0.048652265 -0.00019312475
0003b0 46 be 60 3d d7 be 39 bd ef 52 b0 3b 3e 87 a0 bc
       0.05486896 -0.045348015 0.00538098 -0.019595739
0003c0 ff 0d 7f 3d ca 26 2c 3d c6 50 bc bc d9 b4 04 3d
       0.062269207 0.04202918 -0.022987735 0.032399032
0003d0 1a 5e 42 3d 4b 9f 50 3d 41 eb 25 3d 3f c2 8b 3d
       0.047453023 0.050933164 0.04050756 0.06824159
0003e0 a9 65 06 3d 58 72 1d 3b e7 a1 c7 3c f4 5a 8b 3d
       0.032811794 0.0024024453 0.024369193 0.06804457
0003f0 1d 96 4f 3d a0 74 4e bd 0e a9 f2 bc af 28 01 3d
       0.05068027 -0.05040419 -0.029621627 0.03153294

layer3.0.bias f4 [64]
000000 e3 68 4b bd 00 1a 6a 3b 93 0e 1f 3c f8 ac 6a bc
       -0.049660575 0.0035721064 0.009708065 -0.0143234655
000010 70 88 11 3d 0a e8 2c 3d bd 21 9c 3c 7e 08 de 3a
       0.035530508 0.042213477 0.019059056 0.0016939787
000020 39 bd 3c 3d 4f c6 36 bd e1 b2 4c 3c a4 b5 43 bd
       0.046078894 -0.044622716 0.01249382 -0.047780648
000030 e0 dc 4f 3d 2c e7 ac bc 89 d6 66 3c 9d e8 e2 3c
       0.050747752 -0.021106325 0.014089235 0.02769881
000040 5e 68 9a 3b 4c 47 34 3c f2 b8 a4 bc ee c4 14 bd
       0.0047121486 0.011003327 -0.02010772 -0.03632062
000050 6b 18 4b 3d 1f 79 63 3b 2c 71 ce 3b ea 30 ff bc
       0.049583834 0.0034709645 0.006300112 -0.031151254
000060 15 94 25 3d 24 9c 3a 3d 09 79 c3 bc 5e 09 da 3c
       0.040424425 0.045559064 -0.023861425 0.026615795
000070 90 1b c5 3c 56 74 28 3d c5 fb c9 3c 79 bc 2d bd
       0.024060994 0.04112657 0.024656186 -0.04241607
000080 62 cd 2f 3d 88 5a 3b bd b2 b0 62 3c 30 ce 08 bd
       0.042920478 -0.045740634 0.013836073 -0.03339976
000090 7c e9 4d 3d 4d 3f 19 bd 9d 54 29 bd 4d b6 4f 3b
       0.050271496 -0.037413884 -0.04134046 0.0031694353
0000a0 85 c3 e1 bb 74 78 2b 3d 65 02 b5 bb 86 15 13 bb
       -0.006889763 0.04186292 -0.005523967 -0.002244325
0000b0 32 77 fe bb 4d 1d 4d 3d a3 47 97 3c 3c 9e 06 3d
       -0.007765674 0.05007677 0.018466776 0.032865748
0000c0 74 d4 c5 3b b4 0c 93 3c e6 41 9d bc e8 7e 2f bd
       0.0060372893 0.017950393 -0.019196462 -0.042845637
0000d0 0f be 4d bd 15 ec 8b bc d0 4d 08 3d ed 14 56 3d
       -0.050230082 -0.017080346 0.033277333 0.05226605
0000e0 3b 6d e5 3c 87 45 57 bd d6 39 43 bd 09 eb 56 bd
       0.028006187 -0.05255654 -0.04766258 -0.05247024
0000f0 e6 6f cc 3c 08 c6 4a bd ff f4 86 3c 32 10 23 3d
       0.024955701 -0.049505264 0.016474245 0.039810367

layer3.1.weight f4 [64]
000000 77 49 96 3f 53 9e 49 3f 5f b8 3f 3f 7f 24 23 3f
       1.174117 0.7875721 0.748907 0.63727564
000010 fa fd 83 3f 8c a1 5d 3f ba fa 5e 3f 53 85 5f 3f
       1.0311882 0.86574626 0.8710133 0.8731281
000020 ec 3b 43 3f 34 40 84 3f 10 14 6f 3f 4d 83 3c 3f
       0.7626331 1.0332093 0.9338999 0.7363785
000030 70 92 66 3f af f2 45 3f 9c 2d 77 3f 54 47 4a 3f
       0.90067196 0.7732343 0.9655397 0.7901509
000040 f4 5f 40 3f 2a 06 3f 3f f3 89 48 3f 0a dc 3b 3f
       0.7514641 0.7461878 0.78335494 0.7338263
000050 8f d4 9d 3f 13 72 59 3f fb 8e 27 3f 21 54 68 3f
       1.2330493 0.8493969 0.65452546 0.9075337
000060 87 a5 5c 3f cf 81 4c 3f 86 95 3a 3f 2b e4 5b 3f
       0.86190075 0.7988557 0.72884405 0.8589503
000070 08 a3 74 3f a7 a2 9c 3f e3 69 79 3f a8 e4 4c 3f
       0.95561266 1.2237138 0.97427195 0.800364
000080 72 10 40 3f f4 95 3d 3f 1e 18 7a 3f 2a 6c a4 3f
       0.75025094 0.74056935 0.9769305 1.2845509
000090 c4 b5 69 3f e1 01 73 3f 6b 2d 37 3f 7a 1f 40 3f
       0.9129298 0.9492474 0.7155368 0.7504803
0000a0 fe 22 42 3f e0 ed 3e 3f 57 b8 2c 3f b3 aa 9c 3f
       0.75834644 0.7458172 0.6746878 1.2239593
0000b0 24 e3 54 3f 39 a2 81 3f 69 39 93 3f 62 ea 85 3f
       0.8315909 1.0127631 1.1501895 1.0462153
0000c0 1e f7 36 3f 09 b2 7a 3f 14 04 72 3f 3e 0c 62 3f
       0.7147082 0.9792791 0.9453747 0.8829993
0000d0 7e 80 30 3f 13 a8 8e 3f 6e 68 41 3f 09 29 81 3f
       0.68946064 1.1145042 0.7554997 1.0090648
0000e0 af 6c a6 3f b2 0d 48 3f 6e cc 81 3f 47 68 47 3f
       1.3001918 0.781459 1.0140512 0.7789349
0000f0 cb 4b a1 3f 2c d3 3e 3f 2a 5d 4e 3f ea bf 67 3f
       1.2601255 0.7454097 0.8061091 0.9052721

layer3.1.bias f4 [64]
000000 b4 ed 52 bd 28 d1 e7 bd 92 27 97 be f8 6e 6c be
       -0.051496223 -0.1131919 -0.29522377 -0.23089206
000010 cc 33 06 be 33 7d 5f be 64 7a 9d be 18 ab 86 be
       -0.13105696 -0.21825103 -0.3075744 -0.2630241
000020 42 b3 61 be 88 d5 7b be 02 72 88 be b6 7a 78 be
       -0.22041038 -0.24593174 -0.2664948 -0.2426556
000030 e2 bc 89 be 81 6a 44 be 2b 31 45 be d9 a5 81 be
       -0.2690192 -0.19181253 -0.19257037 -0.25321844
000040 f6 9f 76 be 85 56 17 be cf dd 28 be 34 12 39 be
       -0.24084458 -0.14779098 -0.16490863 -0.1807335
000050 6b 29 cd 3d bf ac 2b be 6c 56 c6 bd b7 47 a1 be
       0.100176655 -0.16765116 -0.096844524 -0.31500027
000060 1b 9a 77 be a7 13 37 be 54 95 be be 55 45 42 be
       -0.2417988 -0.1787859 -0.37223303 -0.1897176
000070 d1 1d 67 be 7e 4b 38 be 13 24 af be d1 07 61 be
       -0.22569968 -0.17997548 -0.3420721 -0.21975638
000080 03 08 0c be 1c b2 4a be 1a c9 89 be 76 dc 56 3c
       -0.13674931 -0.19794506 -0.2691124 0.013114085
000090 59 1a 7a be 0b 01 6c be 92 1a 9e be 21 64 67 be
       -0.24424113 -0.23047273 -0.30879647 -0.2259679
0000a0 f3 cf 91 be 36 e5 11 be 56 c8 51 be 63 3e 99 be
       -0.28478965 -0.14247593 -0.20486578 -0.2993041
0000b0 bc 18 a9 be 0d 9b 94 be 68 1d 4f bd 7a 93 55 bd
       -0.33026683 -0.29024544 -0.050565153 -0.052142598
0000c0 d8 e7 1d be 23 22 c5 bd f1 8e c4 bc 07 47 23 be
       -0.15420473 -0.09625652 -0.023993941 -0.15945064
0000d0 0b b3 82 be 38 c1 06 bf ab cd 95 be f7 f3 83 bd
       -0.25527224 -0.5263858 -0.29258475 -0.06443017
0000e0 06 f0 85 3c 79 5c ba be fa 31 2e be 51 e2 45 be
       0.016349804 -0.36398676 -0.17011252 -0.19324614
0000f0 9f 29 99 ba 5b 66 b2 be 5b ae 00 bd 28 f0 a4 be
       -0.0011685378 -0.34843716 -0.03141628 -0.32214475

layer3.1.running_mean f4 [64]
000000 67 b9 bd 3f be cc 37 c0 83 ec b7 bf 8b 3f 08 bf
       1.4822205 -2.8718715 -1.4369053 -0.5322196
000010 7b 79 32 c0 be da 11 40 1a 1a c4 bf 25 04 7c bf
       -2.7886646 2.278976 -1.5320466 -0.98443824
000020 2f ea 52 3e ea 3d 74 bf a3 27 bf bf b5 08 ab 3f
       0.20597146 -0.95406973 -1.4933971 1.3362032
000030 19 11 66 bf c1 b3 79 bf 32 32 dd bf 2f d7 c5 3e
       -0.8986984 -0.9753991 -1.7280943 0.38640735
000040 97 aa d6 3e 45 77 e8 bf fc 42 d3 be c5 21 d3 3d
       0.41927025 -1.8161398 -0.41262043 0.103091754
000050 de 9b 2e bf d7 4e 0d c0 10 a2 1b c0 cc ad c2 bf
       -0.68206584 -2.207937 -2.4317665 -1.5209289
000060 e0 4f 0c 3f 81 c8 d1 bf ab 2f 2b 40 00 65 18 c0
       0.5480938 -1.6389314 2.6747844 -2.3811646
000070 9e c0 6e 3e 77 46 23 40 7d 43 43 40 a4 1a 1c bf
       0.23315665 2.5511758 3.0509942 -0.6097815
000080 36 e7 93 bf b6 3d 55 bf 54 3b 2b c0 0d 8c 65 c0
       -1.1554935 -0.8329729 -2.675496 -3.586673
000090 9b 42 42 c0 21 f5 49 3e 54 7a 53 be 8a 35 99 bf
       -3.0353153 0.19722416 -0.20652133 -1.1969464
0000a0 44 6a b9 3f 7f 5b dc be cb b8 7d 3f 96 e5 b3 be
       1.4485555 -0.43038556 0.99110097 -0.35136098
0000b0 e3 ac 3e 40 05 a3 c1 3f 70 6c 86 c0 e5 b9 b9 3f
       2.9793022 1.5127875 -4.200737 1.4509856
0000c0 3b f5 27 c0 77 7d a5 3c eb 37 c3 c0 cb 78 c6 3e
       -2.6243427 0.020201428 -6.100576 0.38764033
0000d0 69 f8 0a c0 6b 60 57 bf b2 a8 79 3d ab 79 43 bf
       -2.1714118 -0.841315 0.060951896 -0.76357526
0000e0 20 91 fe bf 0d 6e eb bf ee d3 c3 bd 7a 4a b8 3f
       -1.9888039 -1.839296 -0.09561907 1.4397728
0000f0 a6 00 07 c0 8c dc 2c 40 0d ff 7f c0 f0 c4 3b bf
       -2.1094146 2.700961 -3.999942 -0.7334738

layer3.1.running_var f4 [64]
000000 17 4c 5b 40 71 c3 2f 40 a5 74 10 40 24 c2 99 40
       3.4265192 2.7463038 2.2571194 4.804949
000010 ef 3c 35 40 1d 3c fc 3f 5e 4f 5f 40 69 d8 36 40
       2.831844 1.9705845 3.4892192 2.8569586
000020 ad 6b 9d 3f 50 6b 0a 40 99 ca 37 40 23 9a 4b 40
       1.2298485 2.1627998 2.8717406 3.1812828
000030 e8 4e 39 40 12 c5 88 40 2b 3c 03 40 3e 58 73 40
       2.895441 4.2740564 2.0505474 3.8022609
000040 ad 42 59 40 e3 bb 7a 40 c9 06 2f 40 e8 54 7e 40
       3.3946946 3.9177177 2.7347891 3.9739323
000050 5a f9 2a 40 27 02 46 40 09 72 8a 40 45 89 81 40
       2.6714692 3.0938814 4.3264203 4.0480065
000060 51 36 b2 3f 2d 6f ff 3f 8a 0d 8a 40 c3 d0 93 3f
       1.3922826 1.9955803 4.3141527 1.1548084
000070 48 b5 2a 40 07 52 21 40 18 85 86 40 19 a0 45 40
       2.6673145 2.5206316 4.203747 3.0878966
000080 bc 14 28 40 48 d3 13 40 22 54 81 40 6b e3 94 40
       2.6262655 2.3097706 4.04152 4.652761
000090 87 8c 5d 40 d7 a5 a8 3f 28 fc 88 40 60 d8 47 40
       3.461702 1.317561 4.280781 3.1225815
0000a0 93 70 7a 40 26 ed 1b 40 63 5c 37 40 ba 0f 90 40
       3.913121 2.4363494 2.8650138 4.5019197
0000b0 9a ab b8 40 e3 2c 08 40 ed f6 96 40 d2 b3 2e 40
       5.7709475 2.1277397 4.7176423 2.7297254
0000c0 32 5f 68 40 b5 9e 23 40 bc aa fb 40 e6 5d 7d 40
       3.6308103 2.5565617 7.8645916 3.958856
0000d0 d0 5b 64 40 5b 8e e5 40 25 14 31 40 5b 12 51 40
       3.5681038 7.1736274 2.7668545 3.2667453
0000e0 33 a9 5a 40 ff 44 6a 40 51 45 35 40 b9 af 24 40
       3.416577 3.6604612 2.8323557 2.5732253
0000f0 4e 26 58 40 0a e8 9c 40 54 d7 8f 40 df da 4d 40
       3.377338 4.903325 4.495035 3.2164838
